models/model-b66.pkl (torch_old, 877453 bytes, 116 tensors)

features.0.0.weight f4 [16, 3, 3, 3]
00000000: 4372 8bbe deb7 c2be cc49 cbbe 4871 c4be
00000010: 115d f3be f709 1abe 635e 3c3c 733d a8be
00000020: 36c8 71bd 8152 b83e d40e e03e 9e2f ec3e
00000030: b4ff 033f fbe7 ba3e afe1 c63e c4c5 b83e
00000040: fb8e eb3e 731f ae3e ce0e 233e 50b5 fdbd
00000050: 2bb4 8abb add8 97bd 0416 913d b4b0 313a
00000060: 5158 93bd a937 04be 0ee0 a4be 4168 b4be
00000070: 7c48 ddbe 8491 8ebe 0479 a1be a733 c8be
00000080: 105a e9bd e89a 0bbf b1b9 c4be f2bf cdbd
00000090: c047 973e 62a0 733e f934 253e 5145 4d3e
000000a0: fa17 ea3d 5c9c bf3e 1b61 353e 2eab 493e
000000b0: 7732 c83e dc90 823d 3331 0fbe 42eb 26be
000000c0: cf13 6f3d 1e2b f63d 02cf 02bd fd8a 07be
000000d0: 2916 4cbe fb82 58bc f8b3 003f 9d1d 0d3f
000000e0: b274 053e 6c38 c33e 485d ad3e b80a 513e
000000f0: cb8d e93e fe78 5c3e 4fdd 543e 46bf bdbe
00000100: c15e 3dbe 7b90 8ebe 44a1 2ebe 5267 89be
00000110: 1b93 6ebe 84d1 ecbe 7904 8abe 595f d4be
00000120: 3d73 a9bd 511d 3a3d 2304 27bd d4de ac3e
00000130: ccae 8ebd 47c8 0a3d d7ef d83e 6794 283d
00000140: 9e07 d63e f755 223e 0272 b23d ef75 c5bd
00000150: e87c 37be 2d74 00bf e5fb 63bf 49f2 ac3d
00000160: f678 1d3c 9ad5 37be 305f 8e3e 3209 773d
00000170: 0c09 4cbe e8d9 4ebe b486 ffbe 28bf 3bbf
00000180: 6136 6b3e d2dd a83d d7df e43b 4059 c43d
00000190: 9f14 063d 9ae7 ac3c 975b 4ebe 6dae 7ebe
000001a0: 374e 17bf 287a 38bb f172 63bc 9587 b93d
000001b0: cf56 923e 74f9 a03e 2f65 a13e 5ae6 5a3e
000001c0: 8dab 953e 00ad 8c3e ed4c 373e 6abb 803e
000001d0: 5e5f 8a3e 3d5c a6bd d9e8 083e 0203 0d3e
000001e0: 0e73 42be 9ad1 8c3c 86a0 803d a7fa 7abe
000001f0: 20c6 c8bd d638 543e 4989 a23d ba6c 4c3e
00000200: a761 423e bdc1 acbc edfc 603e e12b 753e
00000210: 7a48 5fbc 5bde 9d3c 7f95 893e 3ca7 923d
00000220: de4d a93e 6475 6f3e f47a babe 32fb 8b3d
00000230: f2b0 343e 12f5 ecbe d2e4 f4be 3c71 baba
00000240: 65ef 8a3d 2ea1 c73e f600 c13e 2e21 07bf
00000250: 5bf2 dbbc 3680 bb3e 9810 febe 08c5 b3be
00000260: 2777 513e 950f a9bd 833f b43e 8eee 9a3e
00000270: 0079 96be d9ee 213d 86db 833e 19ec 57be
00000280: 5d93 06bf eefe e23d def6 8c3e 981d 2c3f
00000290: 651c 793e b41c 6f3e 38a6 313f 1082 163f
000002a0: e014 043d 9234 ed3e f4c8 083f becd b9be
000002b0: 1fee 763d abda d13d 0786 8abe 581e abbd
000002c0: 2c54 7a3b c4c9 a3be 259d 62be e613 fb3c
000002d0: aca0 42be cd0a 0b3e cc9b a33e 064c 60be
000002e0: 8f99 e9bd cf05 2b3d cee4 9fbe 9b86 81bb
000002f0: 0ffc 203e 3215 83be cca6 a7be 3761 f5bd
00000300: 933d debe a88d 36be 5404 a13e 61f1 1abe
00000310: 7c85 a6bd c460 1f3e d98b fdbe a787 3bbe
00000320: 8870 a73c 19b2 0abf 72f7 e3bd 3a16 a53e
00000330: 7b39 0fbe a4bd 95bc 0b87 ae3e 516b b8be
00000340: 712e 34bc 7a61 bf3d e43e b2be 3e2c 49bd
00000350: ee74 dc3e f088 adbe 0c20 793a 3ae3 833e
00000360: bcef 09bf af45 efbe ec98 bcbb 7872 60be
00000370: 07e9 31bd 35cf 3a3e 9f2c 2cbd ac15 803e
00000380: 5f57 7d3e 4563 32bf e299 1cbf 4bbd 49be
00000390: c702 90be 2ca0 9abe 59ec 29be 200c 8dbc
000003a0: 4283 583e 814f d0bc e4ea 77bd f211 19bd
000003b0: 6943 4b3e e21a 9ebc 7669 273e 27ae ae3e
000003c0: 07a7 933e 8b56 983e 72b3 513e 78f4 283f
000003d0: 0bfd 943e 280f 853e 3240 9b3e e56a 9c3d
000003e0: 3370 c7be 44fe 90be d2a3 c1be ff4a 03bf
000003f0: 569a cf3e 65c1 043f 6db3 9f3e 8a14 b53e
-0.27235612 -0.38030905 -0.3970474 -0.38367677 -0.47531942 -0.15042864 0.011497113 -0.32859382
-0.059028827 0.36000445 0.43761313 0.4613008 0.51562047 0.36505112 0.38844058 0.36088383
0.46007523 0.3400837 0.15923616 -0.12388098 -0.0042329035 -0.074143745 0.07084277 0.0006778345
-0.071945794 -0.12911858 -0.3220219 -0.3523579 -0.43219364 -0.27845395 -0.3153764 -0.39101908
-0.11394131 -0.54533243 -0.3842292 -0.10046376 0.29546928 0.2379165 0.16133489 0.20045973
0.114303544 0.3742398 0.17712824 0.19694206 0.39101002 0.06375286 -0.13983612 -0.16300681
0.0583685 0.12019943 -0.0319357 -0.13236614 -0.19930328 -0.013214822 0.5027461 0.5512331
0.13032797 0.38128984 0.3386023 0.20414245 0.45615992 0.2153053 0.20787548 -0.37059993
-0.18493177 -0.27844605 -0.17053705 -0.2683664 -0.23298304 -0.46253598 -0.26956537 -0.41478994
-0.08273933 0.045438115 -0.04077543 0.33763754 -0.069669336 0.033882406 0.42370483 0.041157153
0.41802686 0.15853105 0.087131515 -0.09641635 -0.17918742 -0.5017727 -0.89056236 0.0844465
0.009611359 -0.17952576 0.27806997 0.060311504 -0.19925326 -0.20200312 -0.49907458 -0.73338556
0.22969963 0.08245434 0.0069846916 0.095873356 0.03273451 0.02110653 -0.20152126 -0.24871226
-0.5910372 -0.0028148983 -0.013882385 0.09059063 0.28581855 0.31440318 0.3152251 0.21376935
0.29232445 0.2747574 0.17900439 0.25142986 0.27025884 -0.08123062 0.13370074 0.13770679
-0.18989202 0.01718979 0.062806174 -0.24509679 -0.09803414 0.20724806 0.07936341 0.19963351
0.18982564 -0.021088475 0.21971484 0.2394252 -0.01362812 0.019271066 0.2687187 0.07160804
0.3306722 0.23384625 -0.3642193 0.06835021 0.17645624 -0.46280724 -0.47830826 -0.001422442
0.06783942 0.38990158 0.37696046 -0.52785003 -0.026848963 0.36621255 -0.49622035 -0.3511126
0.2045561 -0.08254925 0.35204706 0.30260128 -0.2938919 0.039534424 0.2575342 -0.21086158
-0.5256861 0.1108378 0.27532095 0.67232656 0.24327238 0.23350793 0.69394255 0.5879221
0.03224647 0.4632917 0.5343163 -0.3628978 0.060285684 0.10246786 -0.2705538 -0.08355397
0.0038197143 -0.31989872 -0.22130258 0.030649137 -0.19006604 0.13578339 0.319548 -0.21904
-0.11406242 0.041753586 -0.31229252 -0.003952814 0.15721153 -0.25602108 -0.32744443 -0.11981433
-0.43406352 -0.17827475 0.31448615 -0.15131141 -0.08130929 0.15564257 -0.49520758 -0.18313466
0.020439401 -0.54178005 -0.11131181 0.3224352 -0.13986771 -0.018278904 0.34087405 -0.36019376
-0.010997401 0.09344764 -0.34813607 -0.04911446 0.4305796 -0.33893538 0.00095033715 0.25759298
-0.5388143 -0.46732852 -0.0057555344 -0.21918666 -0.043435123 0.18243106 -0.04203474 0.25016534
0.2474036 -0.69682723 -0.61172307 -0.19701116 -0.2812712 -0.30200326 -0.16594066 -0.017217696
0.21143821 -0.025428535 -0.060526744 -0.03737063 0.19849934 -0.019299928 0.16348824 0.34117243
0.2883837 0.29753527 0.20478609 0.6599803 0.29099306 0.25988126 0.30322415 0.07637576
-0.3895279 -0.2831899 -0.37820297 -0.5128631 0.40547436 0.51857597 0.31191579 0.35367233

features.0.1.weight f4 [16]
00000000: 4bf5 183f f370 483f 043b 493f 4632 893f
00000010: e274 193f ad06 083f 8c2d 143f 3044 4e3f
00000020: a241 823f 2c21 2e3f d8b9 c83e 9778 d63e
00000030: 1c37 743f 4b7c 6c3f 2533 6e3f 7840 9f3f
0.5974929 0.78297347 0.78605676 1.0718467 0.59943974 0.53135186 0.57882 0.80572796
1.017628 0.68019366 0.39204288 0.41888878 0.9539659 0.92377156 0.9304679 1.2441549

features.0.1.bias f4 [16]
00000000: e400 b63f 205b 0bbe 5bdb f73d 29be 24bf
00000010: bcf5 0dbf d339 803f f248 483f 37b8 f2bd
00000020: 0963 87be a06c 913f 427e 5a3f 50ba d1bd
00000030: 27df 753d 2184 333e 68c0 2cbd a1a6 29be
1.4219022 -0.1360898 0.121023856 -0.6435266 -0.55453086 1.0017647 0.78236306 -0.118515424
-0.26442745 1.1361275 0.85348904 -0.102406144 0.060027268 0.17530872 -0.04217568 -0.1656747

features.0.1.running_mean f4 [16]
00000000: 4e15 86bf 9946 5ebe d153 073e b2b9 9d3f
00000010: a285 88bf c243 e63d 790e 69be 26b4 403f
00000020: 0e09 f83e 41bd 6dbd 0979 4bbd 1565 633f
00000030: e2e9 033f a781 bbbf 8d45 43bf 2553 903f
-1.0475252 -0.21706618 0.13215567 1.2322295 -1.0665781 0.112433925 -0.22759427 0.75274885
0.48444408 -0.058041815 -0.049675975 0.88826114 0.5152875 -1.4648942 -0.76278 1.1275374

features.0.1.running_var f4 [16]
00000000: 647d cc3f b910 8340 f326 9840 acca 7941
00000010: d68f 9041 b992 863f 6e1e 5841 8338 e740
00000020: 3739 6740 44f2 283f 24da 413f 7b07 b940
00000030: 37f8 4b41 c3f1 ad41 8f22 b341 7be2 6b41
1.5975766 4.0957913 4.7547545 15.61198 18.070232 1.0513526 13.507429 7.2256484
3.612867 0.6599467 0.7572348 5.782163 12.748099 21.743048 22.391874 14.742793

features.1.exp_conv.0.weight f4 [32, 4, 1, 1]
00000000: 9c26 4a3d 7c8c cebd a5f9 34be 6559 583f
00000010: e05e f23e d192 d13e f3ae c4be c521 47be
00000020: 03c7 f73e 5415 593e 7c1e 8bbe 873e 373e
00000030: 8401 44bd 5038 9a3e 784b 033e 8be9 243f
00000040: c7f5 0e3f 449c c23d 7668 b6be fee7 49be
00000050: 976a cc3e c8f6 0f3e 6978 5abe e042 00bf
00000060: 059a d4be ad49 a7be 93a2 a93e 8510 d7bc
00000070: a2cd fd3e c3ee 5e3e 5a39 8a3e 2f0f 0d3d
00000080: cff1 b33d c699 233e 5afe 863b fcf5 4b3f
00000090: 2ca5 86ba cde0 433d bdc6 16bf 9d2c cdbe
000000a0: a984 36be ce26 d4be c1ea 9fbe 2bcb 5abe
000000b0: 5888 4b3f 8880 df3a c52c eb3d c8e4 9c3b
000000c0: fe34 1b3e efa7 153f 73f6 5e3e d925 71bd
000000d0: 226c 803e c021 133f 6622 073e e25f 3dbe
000000e0: 8156 113f f1ca dabd 451a 273f 268b 873c
000000f0: 0fb1 bf3d 07a7 d1be 57ed d3be d179 89be
00000100: 1724 28bd 0872 413f 74e9 9abe f7fc 9f3d
00000110: 7cd9 01be 3bb8 7b3e 5056 0ebf f5ca 9f3c
00000120: 76d4 7cbe fc0f c33e 5875 fabe dc53 a43d
00000130: 0bc1 283f b6d0 d5be e45f 1f3e ce72 9f3c
00000140: 91ba a53e eed3 bbbd 8516 08be 8878 043f
00000150: 543c d43d 4816 1e3f 4fb2 5fbe df0f 29be
00000160: 7721 833e ab34 6cbe 6746 f9be baf6 3f3e
00000170: bab7 d33e 9701 f1be 67ae 6b3e 43fa 043d
00000180: d22f 20bf a598 8c3e d28d 303d 4c8b 07bf
00000190: 23f7 4c3e 49ba 2abf 7b89 a83d 3d52 043d
000001a0: 705b aa3e 752e 86be e90a 09bf 4a75 b83e
000001b0: 1526 35be 0e57 163d aeeb 5bbe 076e 563f
000001c0: 1c6e c83c 53e2 5abc 7655 97be 6440 c1bd
000001d0: 68dc 0e3f fd5c 4f3e cf4c 5fbe 1803 cb3e
000001e0: 07e7 213f b36c b7bd 5012 d2be ccaf 383e
000001f0: d783 35be 4a59 a93e be44 b33e 18b7 b8be
0.049353227 -0.10085389 -0.17673357 0.84511405 0.4733801 0.40932325 -0.38414726 -0.19446476
0.4839402 0.21199542 -0.27171695 0.17894946 -0.047853008 0.30121088 0.12821758 0.6441886
0.55843776 0.095024616 -0.35626572 -0.19717404 0.39925072 0.14058983 -0.21334995 -0.50102043
-0.41523758 -0.32673398 0.33131847 -0.026252994 0.49570948 0.21770768 0.2699688 0.03443831
0.08786356 0.15976629 0.0041196765 0.7967222 -0.0010272614 0.04782181 -0.58897 -0.400731
-0.17824043 -0.41435856 -0.3123379 -0.21366565 0.7950492 0.0017051855 0.114831485 0.004788015
0.15156934 0.5845937 0.217737 -0.058873985 0.250825 0.57473373 0.13196716 -0.18493608
0.5677262 -0.10683239 0.6527446 0.016545843 0.09359943 -0.40947744 -0.41392013 -0.2685075
-0.041050043 0.7556462 -0.30256236 0.07811921 -0.1268062 0.24581997 -0.5560045 0.019505957
-0.24690422 0.38098133 -0.4891765 0.080238074 0.6591956 -0.41760796 0.15563923 0.019463923
0.323689 -0.09171282 -0.1328984 0.51746416 0.10363069 0.6175275 -0.21845363 -0.1650996
0.2561147 -0.23066966 -0.48686525 0.18746462 0.4135111 -0.47071525 0.23015748 0.03246523
-0.6257297 0.2746021 0.043104 -0.52946925 0.2001615 -0.666905 0.08229347 0.03230499
0.33272886 -0.2620732 -0.5353227 0.36026984 -0.17690308 0.036704116 -0.21476623 0.8376164
0.024466567 -0.013359624 -0.2955739 -0.0943611 0.55805063 0.20250316 -0.21806644 0.39650798
0.63243145 -0.089562796 -0.41029596 0.18035811 -0.17726074 0.33075935 0.35013384 -0.3607719

features.1.exp_conv.1.weight f4 [32]
00000000: 32e3 2d3f d6e7 e23e 7813 c53e 4c3d cd3e
00000010: 3985 6a3e 3e23 7d3e 4dee c63e 4ecf 0e3f
00000020: d0b5 f23e 42a1 7e3e d05c 873e 4a87 833e
00000030: 6e38 953e 8626 a53e e6eb 323f 5091 613e
00000040: 686c 553e 885c 033e c727 5f3e 721f a93e
00000050: 45dd 5b3e b01d 043f a344 9d3e 1c4d e03e
00000060: d909 3b3f 2ebd 173f f33d 003f 2adb 443f
00000070: f2ce 263e 412f 213f 4e58 223f c4c3 d23e
0.679248 0.44317502 0.38491416 0.40085828 0.22902383 0.24720475 0.38853684 0.5578507
0.47404337 0.24866202 0.26437998 0.25689155 0.29144615 0.32255954 0.698912 0.22028089
0.20842135 0.12828267 0.21792518 0.33031803 0.21471126 0.516078 0.30716428 0.4380883
0.730619 0.5927304 0.50094527 0.7689692 0.16289881 0.6296273 0.6341599 0.41164982

features.1.exp_conv.1.bias f4 [32]
00000000: c772 8abe a927 393e 55cc 173f 90c5 1dbf
00000010: eb3f 503f 3755 4f3f 9191 133f 54ff 6cbe
00000020: c3ec 05bf 8975 173f a9e8 173f 8598 7abe
00000030: 0d51 ed3e 8856 133f 3ca5 473e 366b 453f
00000040: 48fc 3b3f bf4b 173f 7396 473f c0b9 033b
00000050: 63b2 89be f316 e93e 5547 88be a8b1 0c3f
00000060: a447 913e 26ed e93e 27e7 4e3d 22f4 e93d
00000070: 2df4 863d a4f1 bfbd ab40 c53d af4e 2b3f
-0.27040693 0.18081535 0.5929616 -0.6162958 0.8134753 0.809894 0.5764399 -0.23144275
-0.52314395 0.5916372 0.59339386 -0.24472244 0.463509 0.5755391 0.19496626 0.77116716
0.73431826 0.59099954 0.7796394 0.002009973 -0.2689391 0.4552532 -0.26616922 0.5495858
0.2837497 0.45688742 0.050513413 0.11423518 0.065895416 -0.09372261 0.09631475 0.66916937

features.1.exp_conv.1.running_mean f4 [32]
00000000: 7e20 053e ae8e 183f 6821 2c3f 822d 3e3e
00000010: 797a 243f f855 db3e 9396 0dbf daa7 613f
00000020: ad3c cc3e 8d08 08bf 0080 3dbf 69f1 113e
00000030: f751 423f a8bb 263f aaaa e43e 2087 50bf
00000040: 4aaa 1b3f 1e86 71be 0cb5 53bd 300b 0dbe
00000050: 2296 5bbd 8839 093f 95b9 15bf b936 57be
00000060: 3240 bcbe 9b31 42be fccd adbc bcc8 723e
00000070: c718 1bbe 72a6 e23e 73ed 253e c461 573d
0.13000676 0.5959271 0.67238474 0.18572047 0.6424938 0.42839026 -0.55307883 0.88146746
0.39890042 -0.5313805 -0.7402344 0.14252247 0.7590632 0.6513009 0.44661456 -0.81456184
0.60806715 -0.23586318 -0.05168633 -0.13773799 -0.053609975 0.5360341 -0.584863 -0.21016969
-0.36767727 -0.18964235 -0.021216385 0.23709387 -0.1514617 0.44267613 0.16203861 0.05258347

features.1.exp_conv.1.running_var f4 [32]
00000000: 9334 a23d 3332 193e 75bb 023e 83f9 a03d
00000010: 38d7 123e 560f a73d 94ed fe3d 25a8 b53d
00000020: 9d3d 013e 1dad 6d3d bbf9 0f3d 1fee db3c
00000030: 98eb 523d 74c1 3f3d c144 503e e8e2 193d
00000040: b538 7f3e fb57 9b3d 0302 fd3d 9abc 673e
00000050: b270 993d 078e 1b3e 6d8d ad3d e951 363e
00000060: c762 203f de39 573e 6848 0c3f 8f6c 603e
00000070: 0536 9f3c 85d1 913e 8690 d73e b6aa c33e
0.07920184 0.14960556 0.12766822 0.078600906 0.14339912 0.08157222 0.12447658 0.08869962
0.1262116 0.05802642 0.03515027 0.026846943 0.05149421 0.04681535 0.20338728 0.03756991
0.24923976 0.0758514 0.12353899 0.2263054 0.07492198 0.15190898 0.084742405 0.17804684
0.6265072 0.21018168 0.54797983 0.21916412 0.019434938 0.28480163 0.4210245 0.3821618

features.1.dw_conv.0.weight f4 [32, 1, 3, 3]
00000000: 67e0 aabe 4957 fb3c 7e72 5f3d 2132 61be
00000010: a9d0 803e e507 003f b7d9 d8be 96c2 083e
00000020: f78b 603e 2a16 e9be 4c1c 1e3d 1e7f f53e
00000030: 6754 b6be 836e 6d3e efaf 753e 52b0 19be
00000040: 2b67 2e3c 57fc ad3c d15b c9bc f98e 7a3e
00000050: da55 aa3e 4267 3dbe 8825 9ebe c8a5 303e
00000060: e28a 03bf 99c5 dabe b792 103e 2c5a 303f
00000070: 8e99 e23e a094 533e 9818 303e 9b72 b5bc
00000080: 6c1f 0bbe 52dd 53bd a53e 30be 188a 8fbe
00000090: 254c b9be 7030 ebbd 9357 e33e c34b 64be
000000a0: 83fe 863d 77df 213f 815d 62be 2212 4d3d
000000b0: 55d8 943d 2aae 983e 09c3 9fbd 446f a0be
000000c0: ba35 ad3e 321e fabb 9822 ddbe 3056 b83e
000000d0: 2a7c 393e 2548 acbe 57e6 e83e fa84 e93e
000000e0: 0ddb 773e bbe0 0d3d 75ff 27be e19f a83b
000000f0: 709d c6bd eea8 efbe 1d06 afbe 544d 223d
00000100: e6a1 e0bd 7dda b6be 0bb1 d33e 3ac9 343d
00000110: eb0b 4bbe d3bd e13e 5e53 8f3e 40bf 8dbd
00000120: 4623 03be 0e87 ddbe b04c c7be ae80 3a3e
00000130: 4488 053e 2861 c13d dec9 143e 0ec4 d03e
00000140: 6589 873e 948b 743e 510d e83d b1ab 7dbe
00000150: e3d7 4d3e a97d 473e 18fb c5be c06e c4bd
00000160: 305a 493d 903e fcbe 5875 923d 1fdd a43e
00000170: 4799 c4be a656 aabe c473 0d3f a848 4ebe
00000180: 1776 98be e0c3 2f3e e2e2 b53d 7b9e 3fbd
00000190: a4bb eb3e 4553 8d3e 2e2d 1fbe 46aa bd3e
000001a0: 5fa2 763e b9f4 6fbe 61de 85bd 6f60 2fbe
000001b0: e592 a8bc 5973 5ebe 39b2 c1be 3ad1 983e
000001c0: 4887 9e3e 0874 9ebd 0b56 8abe 47f6 a93d
000001d0: ed5e e63e 1dff 873d 1985 d53e 068d c4bd
000001e0: 1eb2 ddbe 4312 dd3d f107 c83e 0ed5 acbe
000001f0: 181e 86be 8784 783e 052d 9f3e 7558 1ebd
00000200: 6930 c9bd 0753 103f 176d 8b3e f87e 31be
00000210: 95dc e83e 14af b83e 1c01 8ebe 7b8f c8be
00000220: 9f75 a23e 54e4 0b3d 248a aebd 05d2 75be
00000230: a28c a83e 7f0b 8f3e 635c 02bf f2ce 763e
00000240: 2751 943d af50 0b3f f71b db3d fa67 4f3e
00000250: 498d da3e f48b c4bd 2149 163d 609e f73d
00000260: ff2b fcbe 6d2d df3e 2623 a7be cd2b abbd
00000270: 2a34 823e f0bf 12bf 7585 7e3e cc18 4bbe
00000280: 79cb 363d d69e e43d 6232 fabd 92a7 80be
00000290: 7954 bf3e 7dad f3be bd00 9a3e 7cfa 5c3e
000002a0: 1717 abbe 65e5 c33e 6e6b a3bd ed36 92be
000002b0: 8f50 e8bd 5ab6 c63e 9397 dfbe 8d12 123e
000002c0: ac00 fe3e a496 13be 0fde c73d ebba 223c
000002d0: b1f2 1dbe b02b 9fbe 6a24 e9bd 835b 7ebe
000002e0: f25f 21bc af14 543e c911 ff3d 7e4d 763e
000002f0: 83ec cb3e 282d 003e 6f2a 023c 7d43 78be
00000300: c7f0 db3e 64fe 80bd a175 1dbf a3c3 883e
00000310: 6cda f5bb 490e a1be fb5f 8ebd 9663 c3be
00000320: 1ad3 72be 5d29 7f3e 0de5 b63e f0de d1bd
00000330: ca37 8b3c c250 bc3e 4bbd 1c3e 8f0a c7be
00000340: 9326 d9be 4b5b c1bd ff68 b43d 60ff 47bc
00000350: 7fd2 24bd c520 e13e adf1 d13e 347d 873d
00000360: 2e30 623d 1f77 353e 5f63 0c3e 3e20 afbe
00000370: 0100 1ebe 9b70 dc3d b43c 12bf 68a6 d5be
00000380: 3894 053e 1972 05be ec8b 6f3d b363 893e
00000390: 15df 31be 4a25 cebd b06a 1d3e 47e2 25bf
000003a0: f9b6 e3be a3dd 13be c9af fe3e 23e5 483e
000003b0: 8389 76be 7a75 af3e 5990 2dbe d0cb 9abe
000003c0: d263 8cbe 2da3 babd 052c 20be 08d8 07be
000003d0: a6cc a9be 9071 6abe 01c6 25bd 3244 2a3d
000003e0: 4e87 2abe 9043 e83e e215 243f 830f 473e
000003f0: 888f 403e 3283 103e 0be8 e23d 5555 403c
-0.3337433 0.03068127 0.054552548 -0.21991779 0.25159195 0.50012046 -0.42353603 0.13355479
0.21928392 -0.45524722 0.038601205 0.47948545 -0.3561127 0.23186688 0.23992895 -0.15008667
0.010644714 0.02123849 -0.024579914 0.24468602 0.33268625 -0.18496421 -0.3088801 0.1725074
-0.51383793 -0.4272888 0.14118467 0.6888759 0.44257778 0.20662165 0.17196882 -0.022149375
-0.13586205 -0.05172474 -0.17211397 -0.28035045 -0.36190906 -0.11483848 0.4440275 -0.22294526
0.06591513 0.63231605 -0.22105981 0.05006612 0.072678246 0.29820377 -0.07800872 -0.3133489
0.33830053 -0.007632994 -0.43190455 0.36003256 0.18113771 -0.33648792 0.45488235 0.45609266
0.24204655 0.034638148 -0.16406043 0.005146012 -0.096979976 -0.4680857 -0.34184352 0.039624527
-0.1096838 -0.35713568 0.4134601 0.044137217 -0.19828765 0.44090137 0.27993292 -0.06921244
-0.12806424 -0.432671 -0.38925695 0.1821315 0.13040262 0.09442359 0.14530131 0.40774578
0.2647201 0.2388137 0.11330665 -0.24772526 0.20101885 0.1948153 -0.38668132 -0.095914364
0.049158275 -0.4926648 0.07151288 0.32199952 -0.3839819 -0.33269233 0.5525477 -0.20144904
-0.29777595 0.17164564 0.08881165 -0.046781998 0.46041596 0.27602592 -0.15544578 0.3704397
0.24085377 -0.23433198 -0.06536556 -0.1712663 -0.020577857 -0.21723689 -0.37831286 0.29847127
0.30962586 -0.07736975 -0.2701877 0.08298927 0.44994298 0.06640456 0.41703108 -0.095972106
-0.43299955 0.10794499 0.3906856 -0.33756298 -0.26194835 0.24269305 0.31089035 -0.038658578
-0.09823687 0.5637669 0.27231666 -0.17333591 0.4548079 0.36071074 -0.2773522 -0.39171967
0.31730363 0.034153298 -0.08522442 -0.24005897 0.32919794 0.27938458 -0.5092222 0.24102381
0.07242041 0.5441999 0.10698693 0.20254508 0.42685917 -0.095970064 0.036690835 0.120907545
-0.49252316 0.43589345 -0.32644004 -0.08357964 0.25430423 -0.57324123 0.24855597 -0.19833678
0.04462764 0.11163108 -0.12216641 -0.25127846 0.37369135 -0.475933 0.30078688 0.21579927
-0.33416054 0.38260952 -0.07979475 -0.2855753 -0.1134349 0.38810998 -0.4367033 0.14264889
0.49609888 -0.14412934 0.09759151 0.00993226 -0.1542461 -0.31088018 -0.113838986 -0.24839596
-0.009849535 0.20711015 0.12454564 0.24052998 0.39828882 0.12517226 0.007944687 -0.24244495
0.42957136 -0.06298521 -0.6150761 0.2671176 -0.0075028446 -0.3145621 -0.069519006 -0.38161916
-0.23713341 0.24918123 0.35721627 -0.102476 0.016994376 0.36780363 0.15306585 -0.38875243
-0.42412242 -0.09441241 0.08809089 -0.012206882 -0.040239807 0.43970314 0.41004696 0.066156775
0.05522173 0.17721222 0.13709782 -0.34204286 -0.15429689 0.10763665 -0.57123876 -0.4172852
0.13044822 -0.13031806 0.05848305 0.26833877 -0.17370255 -0.10065706 0.1537273 -0.64798397
-0.44475535 -0.14440016 0.49743488 0.19618659 -0.24075894 0.34269315 -0.16949596 -0.30233622
-0.27419907 -0.091131546 -0.15641792 -0.13266003 -0.33163947 -0.22894883 -0.040472034 0.041568942
-0.16653177 0.45364046 0.6409589 0.19439511 0.18804753 0.14112547 0.11079415 0.011739095

features.1.dw_conv.1.weight f4 [32]
00000000: c743 8b3f 941e 253f dcfe 323f 8c70 983f
00000010: 1233 973f 20b6 883f 7bef 583f c000 dd3e
00000020: 936a 223f dac2 1d3f d8c6 8c3f 9384 003f
00000030: 2015 3a3f 76f4 6d3f 05fc 893f cc69 613f
00000040: 00f9 753f 4495 7f3f 26ab 853f dcff 253f
00000050: d5b8 c83e 7655 493f 0431 153f 830e 4a3f
00000060: d81c 363f bd0e 563f b94c dd3e a109 743f
00000070: 90f5 b13e 24a5 3e3f c963 623f b9b3 ad3f
1.0880059 0.64499784 0.69920135 1.1909347 1.181246 1.068058 0.8474042 0.43164635
0.6344387 0.61625445 1.0998182 0.5020229 0.72688484 0.9295114 1.0780035 0.8805206
0.9608307 0.99837136 1.0442855 0.64843535 0.39203516 0.7864603 0.58277917 0.78928393
0.7113776 0.8361624 0.43222597 0.9532719 0.34757662 0.74470735 0.8843351 1.3570472

features.1.dw_conv.1.bias f4 [32]
00000000: 3b3d ab3e 5c2f 1abe 8936 723f 475d 78be
00000010: ab02 1e3f 1d64 16be d184 b93f 22a7 543c
00000020: c7cd 5e3e dfd5 1a3c 00e8 cd3d 25c1 a2be
00000030: e2fd f13d 9510 9c3e 9df9 be3e 9df0 1cbc
00000040: 04e0 433f 8f06 c8bd 0b53 cb3d db6e e73d
00000050: f49d 45be e355 213f 6566 d7bd d132 193f
00000060: 3c96 893e e5a1 3f3e a40a dc3e 5ed2 8d3e
00000070: 97e3 a1be 92f4 193f 562c 3fbe d815 ad3f
0.33445153 -0.15057129 0.94614464 -0.24254332 0.6172282 -0.14686628 1.4493657 0.012979301
0.21758185 0.009450405 0.10054016 -0.31787983 0.118160024 0.304814 0.37299815 -0.009578851
0.76513696 -0.09766876 0.099279486 0.11300441 -0.19298536 0.6302168 -0.10517577 0.59843165
0.26872432 0.18714102 0.42976868 0.2769956 -0.3161895 0.6013881 -0.18669257 1.3522291

features.1.dw_conv.1.running_mean f4 [32]
00000000: 0e80 733d 4cb7 c73c 7d36 b0be 4392 9e3c
00000010: 4ee0 953e 4759 74bb 516b 753d 6baa 7b3d
00000020: c89e 853c 8189 82be 08ae 673c ba11 ee3c
00000030: 6b5c c73d cf79 6e3d cdbb 0a3f 38bc adbc
00000040: ff44 2b3f 01dc 77bd 4515 c53c ce40 c33c
00000050: ae22 803b f9da 4fbe a883 733c 7180 123d
00000060: 93f2 e0be 4ddf 21bf 27de 68bd b55a 2c3e
00000070: ac98 75bc b185 cfbd 3a54 b83d ba66 213e
0.059448294 0.024379395 -0.3441657 0.019356852 0.29272693 -0.0037284659 0.059916798 0.06144182
0.016311064 -0.25495532 0.014140613 0.029061187 0.09734424 0.058221634 0.5419281 -0.021207914
0.66902155 -0.060512546 0.024057994 0.023834612 0.003910384 -0.20298375 0.014862932 0.035767023
-0.4393507 -0.63231355 -0.056852486 0.16831477 -0.014990013 -0.101329215 0.0900044 0.15761843

features.1.dw_conv.1.running_var f4 [32]
00000000: e3f1 313d eee4 0f3c ef82 573d dbee 6d3b
00000010: bad2 9e3c 6f4d 963c a011 893c 834e 073d
00000020: d2be 4c3b 4f3d 863c 1fc4 2b3d 02f8 183c
00000030: ffeb 193d 4075 4d3d 3c21 f63e d0c9 3b3c
00000040: c915 313d 958c 1a3c 122f f63c 5f16 5b3c
00000050: 044c e739 bb90 c83d 1b95 ee3a 4820 7d3d
00000060: bab1 1d3e 0b09 8c3e 1137 583c 6927 d63d
00000070: fcb0 ce39 ee20 3c3d b7ed 123d 15ef 053d
0.04344357 0.008782608 0.052615102 0.00363057 0.019387592 0.01834747 0.016732037 0.03303386
0.0031241667 0.016386656 0.041935083 0.009336473 0.03757858 0.050160646 0.4807223 0.01146169
0.043233667 0.009432931 0.030051742 0.013372033 0.0004411639 0.0979323 0.0018202396 0.061798364
0.15399829 0.2735065 0.013196723 0.10456736 0.00039423245 0.04592984 0.035871234 0.03269871

features.1.pw_conv.0.weight f4 [32, 32, 1, 1]
00000000: 0cc1 4b3e 9e52 123e 8a39 d23e de87 493e
00000010: c286 523c 5c59 ff3e 87cb cabe 02d9 37be
00000020: 98c4 763d 8085 f33e f4fa 803e 8983 4e3e
00000030: 1cef eb3c d201 563f 03d3 f73d b945 7c3e
00000040: f48e ff3e 102e 8f3e fa38 ac3e 6586 1a3e
00000050: 46f5 94bd 5255 bf3e d806 58bd 7fc5 123e
00000060: bc43 88bd ad1f ab3e a0ff 1c3e c5dd fcbe
00000070: 307c db3d 3f42 7cbe 1fac 04be c791 d83d
00000080: 39c0 843e 280b 5a3e 5ff2 e43e dbb0 103d
00000090: 1c72 143f 77f5 26be 1e44 2ebf c4aa 62be
000000a0: 2df4 72be 89c9 ed3d bbd1 df3d 9dd1 7a3e
000000b0: 107f 27bc bf9e dc3d c904 80be 9570 653e
000000c0: c331 ecbd 869e 7bbe 27e8 18bd a84a 693e
000000d0: 3c28 a53c af44 acbd ad90 203f 4029 043e
000000e0: 1260 33be 7397 0f3e a947 7ebe 5ce1 353d
000000f0: da9b ca3d eac8 87be 0518 363e d182 dc3e
00000100: 6d69 f93e afbb 993d c9dc 173e 4b5a e23c
00000110: 71cc 323e a543 c0bc a061 d83d 5f6b 713d
00000120: 2160 953d f148 5abd 95ca a43e 3cfa 9e3d
00000130: 0663 e4be e2f9 79bd a355 56bd 8610 023f
00000140: b679 44be f348 873f 2c5b a23f dfd2 07bf
00000150: a2e3 5bbe 9bc6 66bf c942 e4bd 0923 863d
00000160: cc97 0d3e 9ae8 89be 32fa f2bd 108e e6bc
00000170: 8123 023e d366 40bc ca30 79bd ab8c c73c
00000180: 1660 e0be 45cf 24be 125d 03bf d0fb e83d
00000190: 93b9 4bbf f13d e63e 2362 57bf 19b0 28be
000001a0: 6ee8 453e 603b ab3e 2c19 fa3d c4de 993e
000001b0: 93d1 073c 27b3 79bd a70d d93d dcf8 11be
000001c0: fd0c abbe 5635 ff3e 6d28 ea3e 6dd6 e03d
000001d0: 8d30 143d da18 553e a04a c9be bbed 26be
000001e0: 9d5f adbc 4024 b7bd 79c5 003e f6b8 013e
000001f0: 1375 26bd 4355 83be dfac 03bf f0f5 943e
00000200: 62d9 27bf 4761 703d 1783 8b3e 9513 063e
00000210: 21b8 8ebe 711f 413f 6bbe cdbd 2348 8dbe
00000220: 8cd7 dd3d d10e 5fbd 77d1 313f 27eb af3c
00000230: f5d4 b2bd 9679 76bf e096 533e 91f4 543f
00000240: af25 cc3d 5fb1 b33e d57a 9b3e f52b 993c
00000250: 0d29 77bd 4bea cc3e 9ff8 2fbe 0a47 d5bd
00000260: 9b52 59bd 85bf c53d 8e61 c6be bb28 dabe
00000270: 3ed8 bcbd 4c6c 97be 8ca1 b53d 5935 06be
00000280: e07c 1b3e 7509 f23a b945 10be be89 05bd
00000290: 13dc d43e 4342 d53c 060f 17be 02a2 cbbd
000002a0: a03e 2f3c 6e88 7ebd 6d26 da3e 519c b7bd
000002b0: a82a 69bd 4ef8 adbd 46e4 273e 2b17 8d3d
000002c0: 35a8 a7bd 4737 8d3c a38a 86bd df54 babd
000002d0: 41ba 6dbd 2dfe 323e bc4c 86bd 233e 2abe
000002e0: 36ba 8e3c c925 df3d a1c7 1d3c d6c2 ebbd
000002f0: 54fc 9ebc a5fe f03d 22c6 3b3e 3d85 eebd
00000300: da22 003f dfec a03e e1fb 30bf 4276 10be
00000310: c96b f93e 7bb8 2c3f 56a4 efbe 1440 783e
00000320: f057 933c d467 2e3e 73de 1b3f 1d19 d23d
00000330: 0876 8fbe 4f30 f4bc 9f4d d0be 3a30 5d3f
00000340: 4e03 bc3d 7209 883e 512a 42bd dfe0 833e
00000350: c205 c23c ad0a 0f3e 0c64 7e3e 7e84 55be
00000360: 61fc 863d a424 623e c4dd cbbe 9fd8 debd
00000370: 376b f63c 94e9 a43d c563 013e bc5a 773d
00000380: ba8c 76b9 8443 9f3e f8aa ee3e 4995 37bf
00000390: 3ef0 ff3e 8910 92bd bc19 d13e 3022 19be
000003a0: 5a49 e4bd f697 063e 0901 143d e9f9 f23c
000003b0: cb28 8fbe 826b 9bbc 9637 243f 783c 863c
000003c0: ebb6 3bbe 7199 51bd 47f5 bdbd bff4 44be
000003d0: cf1e 113e cff0 11bd 7bc7 5dbe 79aa 02bf
000003e0: aba7 a4be c1e8 b63e 3c02 9fbe 8a16 3fbe
000003f0: f1b0 67bc d1b3 fb3e c23e 783d 1f40 d93e
0.1989786 0.14289328 0.41059524 0.19680735 0.012849512 0.49872863 -0.39608404 -0.17953876
0.06024608 0.4756279 0.25191462 0.20167364 0.02880054 0.8359653 0.12100794 0.24635972
0.49913752 0.2796483 0.3363722 0.1509033 -0.07273345 0.37369782 -0.0527409 0.14333151
-0.06653544 0.33422604 0.15331888 -0.49387947 0.10717046 -0.24634646 -0.12956284 0.1057468
0.25927904 0.21293318 0.44716164 0.035324913 0.5798662 -0.16304575 -0.6807269 -0.22135454
-0.23725958 0.116107054 0.10928675 0.24494024 -0.010223165 0.10772466 -0.2500365 0.22406228
-0.11532929 -0.2457219 -0.037330773 0.22782385 0.020160787 -0.08411538 0.6272076 0.1290636
-0.17517117 0.14022617 -0.24832024 0.044404373 0.098930076 -0.26520473 0.177826 0.43068555
0.48713246 0.07506501 0.14830317 0.027630946 0.174608 -0.023469755 0.105654955 0.058940288
0.07293726 -0.05329222 0.32185808 0.07762572 -0.446068 -0.061029322 -0.052327763 0.5080646
-0.19187054 1.0569137 1.2684073 -0.5305614 -0.21473554 -0.901468 -0.11145551 0.06549651
0.13827437 -0.26935273 -0.11864127 -0.028143913 0.12708856 -0.011743265 -0.060837545 0.024359068
-0.43823308 -0.16094692 -0.5131389 0.113761544 -0.7958004 0.44969133 -0.8413412 -0.16473426
0.19326946 0.33443737 0.122118324 0.3005277 0.0082897125 -0.06096187 0.10598307 -0.14255089
-0.33408347 0.4984538 0.45733967 0.109783985 0.036179114 0.20810261 -0.39314747 -0.16301624
-0.021163756 -0.08942461 0.1257533 0.12668213 -0.040638994 -0.25650987 -0.51435655 0.29093885
-0.65566075 0.05868652 0.2724845 0.13093407 -0.27874854 0.754386 -0.10046085 -0.27594098
0.10832128 -0.05445749 0.69460243 0.021474434 -0.087320246 -0.96279275 0.20663023 0.8318568
0.09968125 0.3509626 0.3036715 0.018697718 -0.060341883 0.400225 -0.17184685 -0.1041394
-0.053057294 0.0965567 -0.38746303 -0.426092 -0.092209324 -0.2957481 0.08868703 -0.13106288
0.15184355 0.0018465953 -0.14089097 -0.032602064 0.41574153 0.026032573 -0.14751825 -0.0994301
0.010696083 -0.06214183 0.42607442 -0.08965362 -0.056925446 -0.08494626 0.16395673 0.068891846
-0.0818638 0.017238272 -0.065694116 -0.09098219 -0.058038954 0.17479773 -0.06557605 -0.16625266
0.017422777 0.10895879 0.009630115 -0.115117714 -0.019407429 0.117673196 0.183373 -0.11646507
0.5005318 0.31430718 -0.69134337 -0.14107612 0.48715046 0.67468995 -0.46805066 0.24243194
0.017986268 0.17031795 0.60886306 0.10258696 -0.28019738 -0.029808192 -0.4068422 0.8640171
0.09180318 0.26569706 -0.047403637 0.257575 0.023684386 0.13968916 0.24842852 -0.20851323
0.06591106 0.2208429 -0.3981763 -0.10881161 0.03008042 0.08052364 0.12635715 0.060389265
-0.00023512813 0.31106198 0.46614814 -0.71712166 0.49987978 -0.0713206 0.40839946 -0.14954448
-0.11146803 0.13143906 0.0361338 0.029660182 -0.2796081 -0.018972162 0.6414732 0.016386256
-0.18331496 -0.051171724 -0.092752986 -0.19233988 0.14171909 -0.035630044 -0.21658127 -0.5104137
-0.3215917 0.35724452 -0.31056392 -0.18660942 -0.014141307 0.49160627 0.060606726 0.42431733

features.1.pw_conv.1.weight f4 [32]
00000000: 7a89 253f 9561 333f 08c4 8b3f 7c3e 533f
00000010: 986d 213f c2da e83e 8443 543f feca 823f
00000020: 0f30 6e3f 0a22 843f aef2 673f 6b87 3f3f
00000030: 7859 3e3f b837 813f 9c76 3c3f ad0f 2f3f
00000040: 72bf 123f 4faf 623f cd9a 323f 7c57 573f
00000050: 9abd 1f3f 5321 613f 5e2d 543f 0d63 873f
00000060: c47e 343f cf6a 593f fa23 343f 3416 5d3f
00000070: 2c8d 823f 636b 0e3f 228e 853f c7c6 7c3f
0.646629 0.70070773 1.0919199 0.8251722 0.6305785 0.454794 0.8291552 1.0218198
0.9304208 1.0322888 0.90604675 0.74816006 0.7435527 1.0095129 0.73618484 0.68383294
0.5732337 0.8854875 0.6976746 0.84117866 0.62398684 0.87941474 0.82881725 1.0577103
0.7050593 0.849286 0.70367396 0.86362004 1.0199332 0.5563261 1.0434 0.9874081

features.1.pw_conv.1.bias f4 [32]
00000000: 91b7 5b3f 785e 933c 6d12 573f 3497 5a3d
00000010: add5 2e3f 018c cfbe e77b f53e 02af 023f
00000020: 727f 0f3f f6a7 3c3f a9a7 13bf 6c0b b63e
00000030: c9ae 973e 9532 53bd e767 c93b ad42 af3e
00000040: 1283 6d3f 1c27 2bbf 7b46 433f bd46 e73e
00000050: b382 d33e be9d 513f 57cd 7ebe eb8f c23e
00000060: d880 123c 4d5e 563f a065 0d3f 8eca c83e
00000070: e560 963e d080 453f fc5e 5f3e 298f 553e
0.85826975 0.017989382 0.8401249 0.053366855 0.68294793 -0.40536502 0.47946092 0.5104829
0.5605384 0.7369379 -0.57677704 0.3555559 0.29625538 -0.05156191 0.0061464193 0.34230557
0.9277812 -0.6685655 0.7627942 0.45171157 0.41310653 0.8188132 -0.24883018 0.38000426
0.008941852 0.8373764 0.5523319 0.39217037 0.293708 0.7714968 0.21813577 0.20855393

features.1.pw_conv.1.running_mean f4 [32]
00000000: 3db8 d03f 2ced 9c3e c447 383e 5e47 0bc0
00000010: ae8e 00bf 5e94 ad3c e939 bcbe 50f0 d73f
00000020: 2e99 12c0 baac bf3f b442 0240 fda2 d13f
00000030: 8867 eb3e dea0 acbf 43ed d6bf 8f43 223e
00000040: b9da 1dc0 e4da 30bd ab02 f13f 254b 36bd
00000050: b9b0 2f3e 482d c7bf b45b e8be c0bf 0ec0
00000060: 1db9 54bf 00c4 d03f 93ff 08c0 7f31 713f
00000070: a49a 00c0 7d76 44bf 9b4b 8ebf 1c52 eb3f
1.6306225 0.30649698 0.17996126 -2.176231 -0.5021771 0.021188911 -0.36762932 1.6870213
-2.2905993 1.4974587 2.0353212 1.6377865 0.45977426 -1.3486593 -1.6791157 0.15846084
-2.4664748 -0.0431775 1.8828939 -0.044505257 0.17157258 -1.5560694 -0.45382464 -2.2304535
-0.8309496 1.6309814 -2.140599 0.9421615 -2.0094385 -0.767433 -1.1116823 1.8384433

features.1.pw_conv.1.running_var f4 [32]
00000000: b3d6 0640 e304 ca3f 24c2 7040 2422 c53f
00000010: 5ab9 d43f ac19 413f f16d 6e40 f5ae a640
00000020: 743d 2e40 d461 6a40 cfff 8e3f 6919 0540
00000030: 5d36 4840 b0ad fc3f 9816 f13f 2ddf cd3f
00000040: 8b25 0140 112b 3d40 5ef5 1940 c8f3 5f40
00000050: 1d73 a53f dc6c 2140 2295 ec3f 5e0a a440
00000060: c6dc 6040 66e4 8440 2907 1340 856e f83f
00000070: d1da 9e40 4ad3 be3f ae5b 9c40 424a a140
2.1068542 1.5782741 3.7618494 1.5401044 1.6619065 0.754298 3.7254603 5.208857
2.7225008 3.662221 1.1171817 2.079676 3.128318 1.9740505 1.883502 1.6083733
2.0179164 2.9557536 2.405601 3.4992542 1.2925755 2.5222692 1.8483012 5.1262655
3.513475 4.1528807 2.297312 1.9408728 4.964211 1.490823 4.8861914 5.0403147

features.2.exp_conv.0.weight f4 [64, 8, 1, 1]
00000000: 9571 ef3e 2251 013d bbc4 babe a19f cbbd
00000010: 4d44 a13e b1d5 d8bd 8f02 adbd 6540 98be
00000020: c6db 2a3c 1cbf 883e 43a7 c03d a5fd 723e
00000030: 704a ae3d 0077 83be 8632 243f 39e8 d8be
00000040: 6962 d2be dc06 00bf 9535 71be 549b 4d3e
00000050: 289d ad3e 5df3 9dbd 38cd fdbd db0a 4b3e
00000060: 6494 d23c 9cf0 a3bd 701c a1be 8a08 13bd
00000070: 146b 65bd b676 4b3e 7531 b4be 2c85 233f
00000080: 6b58 843e 23c9 87be 31b4 55be f487 023f
00000090: 9098 743e aff3 55be 5bdb 803e 911d c4be
000000a0: 3b60 e5be e401 033d 73ae c33d 45f8 b3bd
000000b0: 564c 283f 7c05 473e 418d 593e b47c 573d
000000c0: 0f83 26be 6c81 39be 03c5 3e3f f157 5c3e
000000d0: 6fc3 ffbc 8cb4 b63c eaf4 57be 369e 75bd
000000e0: d077 f83c b5c4 c3be 7980 573f ba33 543e
000000f0: 9d1b b33e dd62 0dbe bccd 023e 9c71 823c
00000100: b493 09bf 5879 9abe dea2 d1be a935 0c3d
00000110: 4950 babd 32b0 03be 138e c7be 5488 c83c
00000120: 8423 aa3d dcf7 99bd 59de 0ebe 485c 8f3e
00000130: 0f74 a13e abd7 5cbe 9ea5 31bf 6233 6cbe
00000140: ca08 223d 1bb8 e3be 3582 293f 089e 823e
00000150: 64cc 183c bd5a 13bf 2cc0 36be 3df9 89bd
00000160: 953b 903e 007d 3a3e 298b 37bf 3fdd 9cba
00000170: fab6 b9be 791d bcbd 5d11 17be c747 9bbd
00000180: 36db 9ebe 23ba 393e 1953 4dbe 300f ffbd
00000190: 37b6 243f b32f 3dbe be0d 4c3e cda3 973d
000001a0: 823d 7c3e c8a9 d3bd 4bc5 933e 9a17 353f
000001b0: afcf da3d 4465 3bbe 5851 bc3d de75 d1bd
000001c0: 947e 14bf 4626 8cbe e787 9e3e 8403 c73d
000001d0: 0516 b2be 24ac adbd dd5e 1cbe cbe1 c93e
000001e0: aaff 013f be35 c7bb cd69 103d 49f6 4a3e
000001f0: ccb8 423e 2a9e 56bd 6162 6c3d b937 583f
00000200: cf20 c2bd a8dc 673f 7cc8 f53d 80f6 efbd
00000210: b2aa df3d 01cf 973e ed47 69be 3607 4bbe
00000220: 095d 63be dba7 923e e9a6 09bf b5aa 1e3f
00000230: 0046 28be de21 9fbd 3f0b 433e b48b 4fbd
00000240: f5e7 e53e 0292 e9be 7ca7 8f3e 9813 4cbe
00000250: 2def 12be 1173 c9bd b3dc e6bc a9c7 afbd
00000260: 5fd0 083f c53f a3be 4929 553e 4c1e b9bd
00000270: 02a9 ecbd 841e 17bf a37e f2bd 1292 443e
00000280: f800 0000 772b 0080 941d 0080 cb33 0080
00000290: 1b12 0080 5107 0000 c21f 0000 ea20 0000
000002a0: 40fe f03c 1f35 7dbe 2cb6 ce3d 420e f13e
000002b0: fba7 af3d 7fd8 05be 6743 3a3f 484c 3a3e
000002c0: 2f35 813e f75f 13bf d69c ae3e 90f2 efbc
000002d0: dcb9 d13e b874 debc 02ea 9f3e 3e3e a4bd
000002e0: 4860 fdbe b58b 82be 981a 49be fcd5 7e3e
000002f0: 6b15 9c3d a78f 2c3e 63a6 cbbd 4b50 ef3e
00000300: e983 26bd 1536 0e3d d137 a63d 1ac1 a83e
00000310: ed4a 89be 0786 423e debf a5be 12d1 473f
00000320: 6fb0 19be 6a49 163f 3938 2ebe f009 5a3e
00000330: 4ed6 df3c 9fb4 a13e 2a7a b0be e172 ecbd
00000340: 1d43 acbe 8841 4c3e ac31 573f 912d 7ebd
00000350: dd82 a53e f2b1 833e cdf4 2bbe eaf6 013e
00000360: 4d66 fabe 2df1 04be 02ef f3be ea40 f53d
00000370: 6e4d e8bc e756 d63e f575 a6be 7565 51bd
00000380: 4ee9 73be af80 31bf 8e80 103d e094 99be
00000390: 6797 d5bd 3eda fe3d ae76 5d3d d6f2 153f
000003a0: e3d3 74be 7c70 c53e a7f1 86be 9a0c fd3d
000003b0: 00da 09be 706e 003f 7f0c 83be 5235 66be
000003c0: 9d53 d6be 6b94 12be 831a b7be b5ba 953e
000003d0: 76b1 2b3f 385d 823e 2029 163e d3ce 55be
000003e0: d16c fbbe 6d7e 223e 69e0 89be 5cba aa3e
000003f0: 477d 753e e2c1 b63e 2544 ac3e 0bea 2ebe
0.46766344 0.031571515 -0.36478218 -0.09942556 0.31497422 -0.105876334 -0.08447754 -0.2973663
0.010428375 0.26708305 0.09406903 0.2372957 0.085102916 -0.25676727 0.6413959 -0.42364672
-0.41090706 -0.50010467 -0.23555596 0.20078784 0.33908963 -0.077124335 -0.12392658 0.1982836
0.025705524 -0.08004877 -0.3146701 -0.035896815 -0.05601032 0.19869503 -0.35193983 0.6387508
0.25848708 -0.26520643 -0.20869519 0.509887 0.23886323 -0.20893739 0.25167355 -0.38303807
-0.4479998 0.031984225 0.09554758 -0.08787588 0.6574148 0.19435686 0.2124529 0.05260916
-0.16260932 -0.18115777 0.74519366 0.21517922 -0.03122112 0.022302888 -0.21089521 -0.059965335
0.030330569 -0.38236013 0.8418041 0.20722857 0.34982005 -0.13807245 0.12773794 0.015923314
-0.53741 -0.30170703 -0.4094457 0.03423086 -0.090973444 -0.12860182 -0.38975582 0.024479069
0.08307555 -0.075179785 -0.13952006 0.28000093 0.31533858 -0.21566646 -0.69393337 -0.23066476
0.039559163 -0.444764 0.66214305 0.25511193 0.009326074 -0.5756033 -0.17846745 -0.067369916
0.28170457 0.18211746 -0.71696717 -0.0011967792 -0.36272413 -0.09185309 -0.14752717 -0.0758205
-0.3102662 0.18137412 -0.2005123 -0.12454069 0.6434054 -0.18475227 0.19927117 0.074042894
0.24632838 -0.103351176 0.2886146 0.7073914 0.10684144 -0.18300349 0.091952026 -0.102275595
-0.5800564 -0.2737295 0.3096306 0.097174674 -0.34782425 -0.08480099 -0.15270562 0.3943008
0.5078074 -0.0060794046 0.03525715 0.19820513 0.19015807 -0.05239693 0.05771101 0.84460026
-0.09478914 0.9057107 0.1200113 -0.11716938 0.109212294 0.2965012 -0.22781344 -0.1982697
-0.22203459 0.2864369 -0.5377031 0.6197923 -0.16432953 -0.077701315 0.19047259 -0.05067034
0.44903532 -0.45619208 0.28057468 -0.1992935 -0.14349051 -0.098364 -0.02818141 -0.08583004
0.5344295 -0.3188459 0.2081653 -0.09038982 -0.11555673 -0.5903094 -0.1184056 0.19196346
3.48e-43 -1.5592e-41 -1.061e-41 -1.858e-41 -6.495e-42 2.625e-42 1.1393e-41 1.1807e-41
0.02941811 -0.24727295 0.1009334 0.4708119 0.085769616 -0.13070868 0.727591 0.18193161
0.25235888 -0.57568306 0.3410403 -0.029290468 0.40962112 -0.027155265 0.3123322 -0.08019684
-0.4948752 -0.25497213 -0.19639051 0.24886316 0.07621273 0.16851674 -0.09943845 0.46740946
-0.040653143 0.034719545 0.08116115 0.32959825 -0.26814976 0.1899644 -0.32372946 0.7805339
-0.1500871 0.5870577 -0.17013635 0.21292853 0.027323868 0.31583115 -0.34468204 -0.11545349
-0.33644953 0.19946873 0.8406017 -0.062055174 0.32326403 0.257217 -0.16792603 0.12691846
-0.48906174 -0.12982626 -0.47643286 0.11975272 -0.028357234 0.41863176 -0.3251187 -0.051122148
-0.23819467 -0.6933698 0.03527885 -0.29996395 -0.10429268 0.1244397 0.05406826 0.58573663
-0.23908953 0.3856238 -0.2635624 0.12355919 -0.13462067 0.50168514 -0.2559547 -0.22481278
-0.41860667 -0.1431443 -0.35762414 0.2924401 0.6706766 0.25461745 0.14664125 -0.20879678
-0.49106458 0.1586854 -0.26929024 0.33345306 0.23973571 0.35694796 0.3364574 -0.17081468

features.2.exp_conv.1.weight f4 [64]
00000000: 7a53 623e 61b3 0a3f b27c 2f3e d3f5 0a3f
00000010: 794a da3e 4e52 8a3e 64e7 d13e 73c4 253f
00000020: 5299 003f be43 113f 9118 da3e d10f f83e
00000030: 60ff 753e f3c2 b63e 7ccb f53d 38c1 b93e
00000040: 0516 1c3f 48ce 043f c843 c13e 9cfe 593e
00000050: ed00 0000 190a b93e cea3 df3e 9704 a23e
00000060: 1280 193f 342f f23d 59e3 b73e 006d 953e
00000070: 4944 c13e 3992 a83e 6243 9e3e b195 a23e
00000080: 78d3 c53e b4ae 873e 5cca ba3e e266 813e
00000090: f296 a33e 441c 4f3e 8d98 9b3e 4d66 c33e
000000a0: 0d85 753e 7167 123f 39e0 b53e 07ed cf3e
000000b0: 25df 613e 436a d53e fb2f c13e 1b68 ab3e
000000c0: 7879 973e e6f3 c73e f9ff 323e 165d 833e
000000d0: 0c37 e23e 23b5 833e 1a63 893e 2489 1b3f
000000e0: 40e8 833e 04ba 763e a0ae cf3e 769e d23e
000000f0: 76e2 bb3e ebe6 f93e 00da 943e 49c4 683e
0.22102156 0.5417996 0.17137411 0.5428135 0.42634943 0.27015918 0.4099685 0.6475288
0.5023395 0.5674399 0.42596868 0.48449567 0.24023199 0.3569561 0.12001702 0.36280227
0.609711 0.5187726 0.37747025 0.21288532 3.32e-43 0.36140516 0.4367966 0.31644127
0.59961045 0.118254095 0.3591564 0.29184723 0.3774741 0.3292406 0.30910784 0.3175483
0.386379 0.26500475 0.36482513 0.25273806 0.319511 0.20225626 0.30389825 0.38163987
0.23976536 0.5718909 0.3552263 0.40610525 0.22057779 0.41682634 0.3773192 0.33477864
0.2958486 0.39053267 0.17480458 0.25656956 0.44182622 0.25724134 0.2683342 0.60756135
0.2576313 0.24094397 0.40562916 0.4113652 0.36696213 0.4880899 0.2907257 0.22731127

features.2.exp_conv.1.bias f4 [64]
00000000: 2096 c63e 1944 123e fa33 113f d0de da3e
00000010: f407 0d3e 6d88 c63e 4f9b d73e 9cda 843e
00000020: b26b ad3e 224a 933d 5434 b33e a89b 043f
00000030: e026 db3e ead2 d13e b784 103f 27b5 0b3f
00000040: 306c c43e ecc2 a5bd dfab 48bd 2ca1 4c3f
00000050: 1f3a 0000 63c5 cabd 4ec2 023f ee3c be3e
00000060: 8f13 183e 60cc b13e de6b 183c 1dbd fc3e
00000070: 4fd6 553d 0d79 e53e 2ef4 063f 27dc 083f
00000080: d85d 093f d0ac fa3e 7c6f 2b3f cf59 1d3f
00000090: f33b 0e3f c9a6 293f 5605 173f c12c 0a3f
000000a0: 86c5 2a3f d01e 9e3d a545 1e3f 7031 e43e
000000b0: 2ed9 0a3f 3956 fa3e 6095 033f 5826 cf3e
000000c0: c5c6 483e f3f1 003f e098 d33e 23f5 f4bc
000000d0: 296e 103f 9039 203f 40f0 013f 5ec3 ff3d
000000e0: 2b13 013f 630b 143f 8704 c43e 3637 173f
000000f0: 238b 093f 9fed 193e d69a 1a3f c506 b13e
0.3878641 0.1428379 0.56719935 0.42748117 0.13772565 0.3877596 0.4211068 0.25948036
0.33871228 0.07191874 0.3500086 0.5180001 0.42803097 0.40981227 0.56452507 0.5457329
0.3836379 -0.08093819 -0.048992034 0.7993343 2.085e-41 -0.0990093 0.51077735 0.3715586
0.14851211 0.34726238 0.009303061 0.49363032 0.052206334 0.44818917 0.5271634 0.53460926
0.5365882 0.4895997 0.66966987 0.6146516 0.55560225 0.6627012 0.58992517 0.5397454
0.66707647 0.07720721 0.6182502 0.44568968 0.5423764 0.48893908 0.51399803 0.4045894
0.19607075 0.50369185 0.41327572 -0.029902047 0.5641809 0.62587833 0.5075722 0.12488435
0.50419873 0.57829875 0.38284704 0.5906862 0.5372793 0.15032052 0.6039251 0.34575477

features.2.exp_conv.1.running_mean f4 [64]
00000000: de34 fe3c 64ce 953e 20aa 8ebe 594f ecbc
00000010: b81f 163e 2204 a63e f015 ae3e c49f 873f
00000020: 00d2 90bf d900 a3be f93e d43e 557e 3ebf
00000030: 0b7c 3f3e f210 2b3f 5711 a1be ebda a63f
00000040: cce8 273f 5103 493e e53f 76be 1d49 83bd
00000050: 9900 0080 5b97 9e3e 9339 4fbd e92c 66be
00000060: 4819 c13e 64f5 d53e c8ae 8f3e b3cb f8be
00000070: 46a7 1bbf c191 b83d 6f81 5ebd 2b0b d43d
00000080: 2ab2 81bf 7238 a7bd 3b3f 90bf 1483 423f
00000090: 05bb 53bf 0a16 cdbe 6818 7abf 5017 ee3e
000000a0: 3cd7 b8be ced1 383f bbc0 a0bf b700 b13e
000000b0: 9ae0 ad3e 1f0f 5cbf 3deb c1bd 99ac 1e3e
000000c0: 5b04 333f f51d 303f 3af5 b5be 4610 2e3f
000000d0: 7d8a 8ebe a5c8 11bf f909 9cbe f8d4 bd3e
000000e0: c608 50be 5301 73bf ca9d 62bd 09ac 98be
000000f0: 5aa9 79be 4192 a13e 195d 5a3f b0d3 e83e
0.031031068 0.29259026 -0.2786417 -0.02884643 0.14660537 0.32425028 0.34001112 1.0595632
-1.1314087 -0.31836584 0.41454294 -0.7441152 0.18699662 0.6682273 -0.31458542 1.3035558
0.65589595 0.19630171 -0.24047811 -0.064104296 -2.14e-43 0.3097485 -0.050592016 -0.2247807
0.377146 0.4178878 0.28063035 -0.4859291 -0.60802114 0.09012175 -0.054322656 0.103536926
-1.0132496 -0.08165063 -1.1269296 0.7598126 -0.82707244 -0.40055877 -0.9769349 0.4650216
-0.3610171 0.72195137 -1.2558817 0.34570858 0.3396042 -0.8596057 -0.09468696 0.15495528
0.6992852 0.6879571 -0.35538656 0.6799358 -0.27840033 -0.56946784 -0.3047636 0.37076545
-0.20315847 -0.94923896 -0.05532626 -0.29818752 -0.24381009 0.31556895 0.85298306 0.45474005

features.2.exp_conv.1.running_var f4 [64]
00000000: 24b9 303e 7cf0 ec3e 0312 143f 64d6 d13e
00000010: 1638 5a3e eac9 3b3e 925c ba3e 536a 4f3f
00000020: 5c7d 9f3f dd27 0d3f d1af 6f3e 6bd1 253f
00000030: 80e6 d83d 5178 9a3e f00b 503e 23f6 3f3f
00000040: 99c5 373f 7689 9b3e 2b9c c03e 7aa1 023f
00000050: 0400 0000 29e3 8d3e ea38 cb3e 182d 513e
00000060: 35e9 8e3e 06b5 e63e d8e7 053f 52de 203e
00000070: 6d97 c43e c5c8 9e3e 7116 0a3f 271a ff3e
00000080: 980f d63e 24a0 353e 7d8b cd3e d555 d73e
00000090: 0e4b b13e a733 963e 5a3a ba3e a8d6 883e
000000a0: 8fc6 c23e 8b9a 863e 4511 ec3e 618b 803e
000000b0: 415f 783e 78ca bc3e 74b1 8a3e 382c dd3d
000000c0: b07e 6a3e 85f3 063f a4e8 7f3e aa26 d53e
000000d0: 905c 913f fbe9 2e3e ea89 9a3e d2cb 0c3f
000000e0: 414e ae3e 7564 113e 4c57 113e 0b2e 8f3f
000000f0: 9972 af3e 2f5e e03e bfd9 223e f00f 403e
0.17258126 0.46277225 0.57839984 0.4098388 0.21310458 0.18338743 0.3639875 0.8102161
1.2460132 0.5513895 0.23406912 0.6477267 0.105908394 0.3016992 0.20317054 0.7498495
0.71785885 0.30378312 0.37619147 0.51027644 6e-45 0.27712372 0.3969186 0.20427358
0.27912298 0.45059985 0.5230689 0.15709808 0.3839678 0.3101255 0.5394049 0.4982464
0.41808772 0.1773687 0.40145484 0.42057672 0.34627575 0.29336283 0.36372644 0.2672627
0.38042113 0.26289782 0.46106926 0.25106338 0.24255086 0.3687322 0.2708851 0.1079945
0.2289989 0.5271533 0.24991089 0.4163106 1.1356373 0.17081444 0.30183345 0.54998505
0.34044078 0.14198478 0.14193457 1.1185926 0.3426712 0.43821856 0.15903376 0.1875608
